{"format": "graph-model", "generatedBy": "2.19.0", "convertedBy": "TensorFlow.js Converter v4.22.0", "signature": {"inputs": {"keras_tensor": {"name": "keras_tensor:0", "dtype": "DT_FLOAT", "tensorShape": {"dim": [{"size": "-1"}, {"size": "224"}, {"size": "224"}, {"size": "3"}]}}}, "outputs": {"output_0": {"name": "Identity:0", "dtype": "DT_FLOAT", "tensorShape": {"dim": [{"size": "-1"}, {"size": "1000"}]}}}}, "modelTopology": {"node": [{"name": "StatefulPartitionedCall/mobilenet_1.00_224_1/conv1_1/convolution/merged_input", "op": "Const", "attr": {"value": {"tensor": {"dtype": "DT_FLOAT", "tensorShape": {"dim": [{"size": "3"}, {"size": "3"}, {"size": "3"}, {"size": "32"}]}}}, "dtype": {"type": "DT_FLOAT"}}}, {"name": "StatefulPartitionedCall/mobilenet_1.00_224_1/conv1_bn_1/batchnorm/sub", "op": "Const", "attr": {"value": {"tensor": {"dtype": "DT_FLOAT", "tensorShape": {"dim": [{"size": "32"}]}}}, "dtype": {"type": "DT_FLOAT"}}}, {"name": "StatefulPartitionedCall/mobilenet_1.00_224_1/conv_dw_1_1/depthwise/ReadVariableOp", "op": "Const", "attr": {"value": {"tensor": {"dtype": "DT_FLOAT", "tensorShape": {"dim": [{"size": "3"}, {"size": "3"}, {"size": "32"}, {"size": "1"}]}}}, "dtype": {"type": "DT_FLOAT"}}}, {"name": "StatefulPartitionedCall/mobilenet_1.00_224_1/conv_dw_1_bn_1/batchnorm/mul", "op": "Const", "attr": {"value": {"tensor": {"dtype": "DT_FLOAT", "tensorShape": {"dim": [{"size": "32"}]}}}, "dtype": {"type": "DT_FLOAT"}}}, {"name": "StatefulPartitionedCall/mobilenet_1.00_224_1/conv_dw_1_bn_1/batchnorm/sub", "op": "Const", "attr": {"value": {"tensor": {"dtype": "DT_FLOAT", "tensorShape": {"dim": [{"size": "32"}]}}}, "dtype": {"type": "DT_FLOAT"}}}, {"name": "StatefulPartitionedCall/mobilenet_1.00_224_1/conv_pw_1_1/convolution/merged_input", "op": "Const", "attr": {"value": {"tensor": {"dtype": "DT_FLOAT", "tensorShape": {"dim": [{"size": "1"}, {"size": "1"}, {"size": "32"}, {"size": "64"}]}}}, "dtype": {"type": "DT_FLOAT"}}}, {"name": "StatefulPartitionedCall/mobilenet_1.00_224_1/conv_pw_1_bn_1/batchnorm/sub", "op": "Const", "attr": {"value": {"tensor": {"dtype": "DT_FLOAT", "tensorShape": {"dim": [{"size": "64"}]}}}, "dtype": {"type": "DT_FLOAT"}}}, {"name": "StatefulPartitionedCall/mobilenet_1.00_224_1/conv_pad_2_1/Const", "op": "Const", "attr": {"value": {"tensor": {"dtype": "DT_INT32", "tensorShape": {"dim": [{"size": "4"}, {"size": "2"}]}}}, "dtype": {"type": "DT_INT32"}}}, {"name": "StatefulPartitionedCall/mobilenet_1.00_224_1/conv_dw_2_1/depthwise/ReadVariableOp", "op": "Const", "attr": {"value": {"tensor": {"dtype": "DT_FLOAT", "tensorShape": {"dim": [{"size": "3"}, {"size": "3"}, {"size": "64"}, {"size": "1"}]}}}, "dtype": {"type": "DT_FLOAT"}}}, {"name": "StatefulPartitionedCall/mobilenet_1.00_224_1/conv_dw_2_bn_1/batchnorm/mul", "op": "Const", "attr": {"value": {"tensor": {"dtype": "DT_FLOAT", "tensorShape": {"dim": [{"size": "64"}]}}}, "dtype": {"type": "DT_FLOAT"}}}, {"name": "StatefulPartitionedCall/mobilenet_1.00_224_1/conv_dw_2_bn_1/batchnorm/sub", "op": "Const", "attr": {"value": {"tensor": {"dtype": "DT_FLOAT", "tensorShape": {"dim": [{"size": "64"}]}}}, "dtype": {"type": "DT_FLOAT"}}}, {"name": "StatefulPartitionedCall/mobilenet_1.00_224_1/conv_pw_2_1/convolution/merged_input", "op": "Const", "attr": {"value": {"tensor": {"dtype": "DT_FLOAT", "tensorShape": {"dim": [{"size": "1"}, {"size": "1"}, {"size": "64"}, {"size": "128"}]}}}, "dtype": {"type": "DT_FLOAT"}}}, {"name": "StatefulPartitionedCall/mobilenet_1.00_224_1/conv_pw_2_bn_1/batchnorm/sub", "op": "Const", "attr": {"value": {"tensor": {"dtype": "DT_FLOAT", "tensorShape": {"dim": [{"size": "128"}]}}}, "dtype": {"type": "DT_FLOAT"}}}, {"name": "StatefulPartitionedCall/mobilenet_1.00_224_1/conv_dw_3_1/depthwise/ReadVariableOp", "op": "Const", "attr": {"value": {"tensor": {"dtype": "DT_FLOAT", "tensorShape": {"dim": [{"size": "3"}, {"size": "3"}, {"size": "128"}, {"size": "1"}]}}}, "dtype": {"type": "DT_FLOAT"}}}, {"name": "StatefulPartitionedCall/mobilenet_1.00_224_1/conv_dw_3_bn_1/batchnorm/mul", "op": "Const", "attr": {"value": {"tensor": {"dtype": "DT_FLOAT", "tensorShape": {"dim": [{"size": "128"}]}}}, "dtype": {"type": "DT_FLOAT"}}}, {"name": "StatefulPartitionedCall/mobilenet_1.00_224_1/conv_dw_3_bn_1/batchnorm/sub", "op": "Const", "attr": {"value": {"tensor": {"dtype": "DT_FLOAT", "tensorShape": {"dim": [{"size": "128"}]}}}, "dtype": {"type": "DT_FLOAT"}}}, {"name": "StatefulPartitionedCall/mobilenet_1.00_224_1/conv_pw_3_1/convolution/merged_input", "op": "Const", "attr": {"value": {"tensor": {"dtype": "DT_FLOAT", "tensorShape": {"dim": [{"size": "1"}, {"size": "1"}, {"size": "128"}, {"size": "128"}]}}}, "dtype": {"type": "DT_FLOAT"}}}, {"name": "StatefulPartitionedCall/mobilenet_1.00_224_1/conv_pw_3_bn_1/batchnorm/sub", "op": "Const", "attr": {"value": {"tensor": {"dtype": "DT_FLOAT", "tensorShape": {"dim": [{"size": "128"}]}}}, "dtype": {"type": "DT_FLOAT"}}}, {"name": "StatefulPartitionedCall/mobilenet_1.00_224_1/conv_pad_4_1/Const", "op": "Const", "attr": {"value": {"tensor": {"dtype": "DT_INT32", "tensorShape": {"dim": [{"size": "4"}, {"size": "2"}]}}}, "dtype": {"type": "DT_INT32"}}}, {"name": "StatefulPartitionedCall/mobilenet_1.00_224_1/conv_dw_4_1/depthwise/ReadVariableOp", "op": "Const", "attr": {"value": {"tensor": {"dtype": "DT_FLOAT", "tensorShape": {"dim": [{"size": "3"}, {"size": "3"}, {"size": "128"}, {"size": "1"}]}}}, "dtype": {"type": "DT_FLOAT"}}}, {"name": "StatefulPartitionedCall/mobilenet_1.00_224_1/conv_dw_4_bn_1/batchnorm/mul", "op": "Const", "attr": {"value": {"tensor": {"dtype": "DT_FLOAT", "tensorShape": {"dim": [{"size": "128"}]}}}, "dtype": {"type": "DT_FLOAT"}}}, {"name": "StatefulPartitionedCall/mobilenet_1.00_224_1/conv_dw_4_bn_1/batchnorm/sub", "op": "Const", "attr": {"value": {"tensor": {"dtype": "DT_FLOAT", "tensorShape": {"dim": [{"size": "128"}]}}}, "dtype": {"type": "DT_FLOAT"}}}, {"name": "StatefulPartitionedCall/mobilenet_1.00_224_1/conv_pw_4_1/convolution/merged_input", "op": "Const", "attr": {"value": {"tensor": {"dtype": "DT_FLOAT", "tensorShape": {"dim": [{"size": "1"}, {"size": "1"}, {"size": "128"}, {"size": "256"}]}}}, "dtype": {"type": "DT_FLOAT"}}}, {"name": "StatefulPartitionedCall/mobilenet_1.00_224_1/conv_pw_4_bn_1/batchnorm/sub", "op": "Const", "attr": {"value": {"tensor": {"dtype": "DT_FLOAT", "tensorShape": {"dim": [{"size": "256"}]}}}, "dtype": {"type": "DT_FLOAT"}}}, {"name": "StatefulPartitionedCall/mobilenet_1.00_224_1/conv_dw_5_1/depthwise/ReadVariableOp", "op": "Const", "attr": {"value": {"tensor": {"dtype": "DT_FLOAT", "tensorShape": {"dim": [{"size": "3"}, {"size": "3"}, {"size": "256"}, {"size": "1"}]}}}, "dtype": {"type": "DT_FLOAT"}}}, {"name": "StatefulPartitionedCall/mobilenet_1.00_224_1/conv_dw_5_bn_1/batchnorm/mul", "op": "Const", "attr": {"value": {"tensor": {"dtype": "DT_FLOAT", "tensorShape": {"dim": [{"size": "256"}]}}}, "dtype": {"type": "DT_FLOAT"}}}, {"name": "StatefulPartitionedCall/mobilenet_1.00_224_1/conv_dw_5_bn_1/batchnorm/sub", "op": "Const", "attr": {"value": {"tensor": {"dtype": "DT_FLOAT", "tensorShape": {"dim": [{"size": "256"}]}}}, "dtype": {"type": "DT_FLOAT"}}}, {"name": "StatefulPartitionedCall/mobilenet_1.00_224_1/conv_pw_5_1/convolution/merged_input", "op": "Const", "attr": {"value": {"tensor": {"dtype": "DT_FLOAT", "tensorShape": {"dim": [{"size": "1"}, {"size": "1"}, {"size": "256"}, {"size": "256"}]}}}, "dtype": {"type": "DT_FLOAT"}}}, {"name": "StatefulPartitionedCall/mobilenet_1.00_224_1/conv_pw_5_bn_1/batchnorm/sub", "op": "Const", "attr": {"value": {"tensor": {"dtype": "DT_FLOAT", "tensorShape": {"dim": [{"size": "256"}]}}}, "dtype": {"type": "DT_FLOAT"}}}, {"name": "StatefulPartitionedCall/mobilenet_1.00_224_1/conv_pad_6_1/Const", "op": "Const", "attr": {"value": {"tensor": {"dtype": "DT_INT32", "tensorShape": {"dim": [{"size": "4"}, {"size": "2"}]}}}, "dtype": {"type": "DT_INT32"}}}, {"name": "StatefulPartitionedCall/mobilenet_1.00_224_1/conv_dw_6_1/depthwise/ReadVariableOp", "op": "Const", "attr": {"value": {"tensor": {"dtype": "DT_FLOAT", "tensorShape": {"dim": [{"size": "3"}, {"size": "3"}, {"size": "256"}, {"size": "1"}]}}}, "dtype": {"type": "DT_FLOAT"}}}, {"name": "StatefulPartitionedCall/mobilenet_1.00_224_1/conv_dw_6_bn_1/batchnorm/mul", "op": "Const", "attr": {"value": {"tensor": {"dtype": "DT_FLOAT", "tensorShape": {"dim": [{"size": "256"}]}}}, "dtype": {"type": "DT_FLOAT"}}}, {"name": "StatefulPartitionedCall/mobilenet_1.00_224_1/conv_dw_6_bn_1/batchnorm/sub", "op": "Const", "attr": {"value": {"tensor": {"dtype": "DT_FLOAT", "tensorShape": {"dim": [{"size": "256"}]}}}, "dtype": {"type": "DT_FLOAT"}}}, {"name": "StatefulPartitionedCall/mobilenet_1.00_224_1/conv_pw_6_1/convolution/merged_input", "op": "Const", "attr": {"value": {"tensor": {"dtype": "DT_FLOAT", "tensorShape": {"dim": [{"size": "1"}, {"size": "1"}, {"size": "256"}, {"size": "512"}]}}}, "dtype": {"type": "DT_FLOAT"}}}, {"name": "StatefulPartitionedCall/mobilenet_1.00_224_1/conv_pw_6_bn_1/batchnorm/sub", "op": "Const", "attr": {"value": {"tensor": {"dtype": "DT_FLOAT", "tensorShape": {"dim": [{"size": "512"}]}}}, "dtype": {"type": "DT_FLOAT"}}}, {"name": "StatefulPartitionedCall/mobilenet_1.00_224_1/conv_dw_7_1/depthwise/ReadVariableOp", "op": "Const", "attr": {"value": {"tensor": {"dtype": "DT_FLOAT", "tensorShape": {"dim": [{"size": "3"}, {"size": "3"}, {"size": "512"}, {"size": "1"}]}}}, "dtype": {"type": "DT_FLOAT"}}}, {"name": "StatefulPartitionedCall/mobilenet_1.00_224_1/conv_dw_7_bn_1/batchnorm/mul", "op": "Const", "attr": {"value": {"tensor": {"dtype": "DT_FLOAT", "tensorShape": {"dim": [{"size": "512"}]}}}, "dtype": {"type": "DT_FLOAT"}}}, {"name": "StatefulPartitionedCall/mobilenet_1.00_224_1/conv_dw_7_bn_1/batchnorm/sub", "op": "Const", "attr": {"value": {"tensor": {"dtype": "DT_FLOAT", "tensorShape": {"dim": [{"size": "512"}]}}}, "dtype": {"type": "DT_FLOAT"}}}, {"name": "StatefulPartitionedCall/mobilenet_1.00_224_1/conv_pw_7_1/convolution/merged_input", "op": "Const", "attr": {"value": {"tensor": {"dtype": "DT_FLOAT", "tensorShape": {"dim": [{"size": "1"}, {"size": "1"}, {"size": "512"}, {"size": "512"}]}}}, "dtype": {"type": "DT_FLOAT"}}}, {"name": "StatefulPartitionedCall/mobilenet_1.00_224_1/conv_pw_7_bn_1/batchnorm/sub", "op": "Const", "attr": {"value": {"tensor": {"dtype": "DT_FLOAT", "tensorShape": {"dim": [{"size": "512"}]}}}, "dtype": {"type": "DT_FLOAT"}}}, {"name": "StatefulPartitionedCall/mobilenet_1.00_224_1/conv_dw_8_1/depthwise/ReadVariableOp", "op": "Const", "attr": {"value": {"tensor": {"dtype": "DT_FLOAT", "tensorShape": {"dim": [{"size": "3"}, {"size": "3"}, {"size": "512"}, {"size": "1"}]}}}, "dtype": {"type": "DT_FLOAT"}}}, {"name": "StatefulPartitionedCall/mobilenet_1.00_224_1/conv_dw_8_bn_1/batchnorm/mul", "op": "Const", "attr": {"value": {"tensor": {"dtype": "DT_FLOAT", "tensorShape": {"dim": [{"size": "512"}]}}}, "dtype": {"type": "DT_FLOAT"}}}, {"name": "StatefulPartitionedCall/mobilenet_1.00_224_1/conv_dw_8_bn_1/batchnorm/sub", "op": "Const", "attr": {"value": {"tensor": {"dtype": "DT_FLOAT", "tensorShape": {"dim": [{"size": "512"}]}}}, "dtype": {"type": "DT_FLOAT"}}}, {"name": "StatefulPartitionedCall/mobilenet_1.00_224_1/conv_pw_8_1/convolution/merged_input", "op": "Const", "attr": {"value": {"tensor": {"dtype": "DT_FLOAT", "tensorShape": {"dim": [{"size": "1"}, {"size": "1"}, {"size": "512"}, {"size": "512"}]}}}, "dtype": {"type": "DT_FLOAT"}}}, {"name": "StatefulPartitionedCall/mobilenet_1.00_224_1/conv_pw_8_bn_1/batchnorm/sub", "op": "Const", "attr": {"value": {"tensor": {"dtype": "DT_FLOAT", "tensorShape": {"dim": [{"size": "512"}]}}}, "dtype": {"type": "DT_FLOAT"}}}, {"name": "StatefulPartitionedCall/mobilenet_1.00_224_1/conv_dw_9_1/depthwise/ReadVariableOp", "op": "Const", "attr": {"value": {"tensor": {"dtype": "DT_FLOAT", "tensorShape": {"dim": [{"size": "3"}, {"size": "3"}, {"size": "512"}, {"size": "1"}]}}}, "dtype": {"type": "DT_FLOAT"}}}, {"name": "StatefulPartitionedCall/mobilenet_1.00_224_1/conv_dw_9_bn_1/batchnorm/mul", "op": "Const", "attr": {"value": {"tensor": {"dtype": "DT_FLOAT", "tensorShape": {"dim": [{"size": "512"}]}}}, "dtype": {"type": "DT_FLOAT"}}}, {"name": "StatefulPartitionedCall/mobilenet_1.00_224_1/conv_dw_9_bn_1/batchnorm/sub", "op": "Const", "attr": {"value": {"tensor": {"dtype": "DT_FLOAT", "tensorShape": {"dim": [{"size": "512"}]}}}, "dtype": {"type": "DT_FLOAT"}}}, {"name": "StatefulPartitionedCall/mobilenet_1.00_224_1/conv_pw_9_1/convolution/merged_input", "op": "Const", "attr": {"value": {"tensor": {"dtype": "DT_FLOAT", "tensorShape": {"dim": [{"size": "1"}, {"size": "1"}, {"size": "512"}, {"size": "512"}]}}}, "dtype": {"type": "DT_FLOAT"}}}, {"name": "StatefulPartitionedCall/mobilenet_1.00_224_1/conv_pw_9_bn_1/batchnorm/sub", "op": "Const", "attr": {"value": {"tensor": {"dtype": "DT_FLOAT", "tensorShape": {"dim": [{"size": "512"}]}}}, "dtype": {"type": "DT_FLOAT"}}}, {"name": "StatefulPartitionedCall/mobilenet_1.00_224_1/conv_dw_10_1/depthwise/ReadVariableOp", "op": "Const", "attr": {"value": {"tensor": {"dtype": "DT_FLOAT", "tensorShape": {"dim": [{"size": "3"}, {"size": "3"}, {"size": "512"}, {"size": "1"}]}}}, "dtype": {"type": "DT_FLOAT"}}}, {"name": "StatefulPartitionedCall/mobilenet_1.00_224_1/conv_dw_10_bn_1/batchnorm/mul", "op": "Const", "attr": {"value": {"tensor": {"dtype": "DT_FLOAT", "tensorShape": {"dim": [{"size": "512"}]}}}, "dtype": {"type": "DT_FLOAT"}}}, {"name": "StatefulPartitionedCall/mobilenet_1.00_224_1/conv_dw_10_bn_1/batchnorm/sub", "op": "Const", "attr": {"value": {"tensor": {"dtype": "DT_FLOAT", "tensorShape": {"dim": [{"size": "512"}]}}}, "dtype": {"type": "DT_FLOAT"}}}, {"name": "StatefulPartitionedCall/mobilenet_1.00_224_1/conv_pw_10_1/convolution/merged_input", "op": "Const", "attr": {"value": {"tensor": {"dtype": "DT_FLOAT", "tensorShape": {"dim": [{"size": "1"}, {"size": "1"}, {"size": "512"}, {"size": "512"}]}}}, "dtype": {"type": "DT_FLOAT"}}}, {"name": "StatefulPartitionedCall/mobilenet_1.00_224_1/conv_pw_10_bn_1/batchnorm/sub", "op": "Const", "attr": {"value": {"tensor": {"dtype": "DT_FLOAT", "tensorShape": {"dim": [{"size": "512"}]}}}, "dtype": {"type": "DT_FLOAT"}}}, {"name": "StatefulPartitionedCall/mobilenet_1.00_224_1/conv_dw_11_1/depthwise/ReadVariableOp", "op": "Const", "attr": {"value": {"tensor": {"dtype": "DT_FLOAT", "tensorShape": {"dim": [{"size": "3"}, {"size": "3"}, {"size": "512"}, {"size": "1"}]}}}, "dtype": {"type": "DT_FLOAT"}}}, {"name": "StatefulPartitionedCall/mobilenet_1.00_224_1/conv_dw_11_bn_1/batchnorm/mul", "op": "Const", "attr": {"value": {"tensor": {"dtype": "DT_FLOAT", "tensorShape": {"dim": [{"size": "512"}]}}}, "dtype": {"type": "DT_FLOAT"}}}, {"name": "StatefulPartitionedCall/mobilenet_1.00_224_1/conv_dw_11_bn_1/batchnorm/sub", "op": "Const", "attr": {"value": {"tensor": {"dtype": "DT_FLOAT", "tensorShape": {"dim": [{"size": "512"}]}}}, "dtype": {"type": "DT_FLOAT"}}}, {"name": "StatefulPartitionedCall/mobilenet_1.00_224_1/conv_pw_11_1/convolution/merged_input", "op": "Const", "attr": {"value": {"tensor": {"dtype": "DT_FLOAT", "tensorShape": {"dim": [{"size": "1"}, {"size": "1"}, {"size": "512"}, {"size": "512"}]}}}, "dtype": {"type": "DT_FLOAT"}}}, {"name": "StatefulPartitionedCall/mobilenet_1.00_224_1/conv_pw_11_bn_1/batchnorm/sub", "op": "Const", "attr": {"value": {"tensor": {"dtype": "DT_FLOAT", "tensorShape": {"dim": [{"size": "512"}]}}}, "dtype": {"type": "DT_FLOAT"}}}, {"name": "StatefulPartitionedCall/mobilenet_1.00_224_1/conv_pad_12_1/Const", "op": "Const", "attr": {"value": {"tensor": {"dtype": "DT_INT32", "tensorShape": {"dim": [{"size": "4"}, {"size": "2"}]}}}, "dtype": {"type": "DT_INT32"}}}, {"name": "StatefulPartitionedCall/mobilenet_1.00_224_1/conv_dw_12_1/depthwise/ReadVariableOp", "op": "Const", "attr": {"value": {"tensor": {"dtype": "DT_FLOAT", "tensorShape": {"dim": [{"size": "3"}, {"size": "3"}, {"size": "512"}, {"size": "1"}]}}}, "dtype": {"type": "DT_FLOAT"}}}, {"name": "StatefulPartitionedCall/mobilenet_1.00_224_1/conv_dw_12_bn_1/batchnorm/mul", "op": "Const", "attr": {"value": {"tensor": {"dtype": "DT_FLOAT", "tensorShape": {"dim": [{"size": "512"}]}}}, "dtype": {"type": "DT_FLOAT"}}}, {"name": "StatefulPartitionedCall/mobilenet_1.00_224_1/conv_dw_12_bn_1/batchnorm/sub", "op": "Const", "attr": {"value": {"tensor": {"dtype": "DT_FLOAT", "tensorShape": {"dim": [{"size": "512"}]}}}, "dtype": {"type": "DT_FLOAT"}}}, {"name": "StatefulPartitionedCall/mobilenet_1.00_224_1/conv_pw_12_1/convolution/merged_input", "op": "Const", "attr": {"value": {"tensor": {"dtype": "DT_FLOAT", "tensorShape": {"dim": [{"size": "1"}, {"size": "1"}, {"size": "512"}, {"size": "1024"}]}}}, "dtype": {"type": "DT_FLOAT"}}}, {"name": "StatefulPartitionedCall/mobilenet_1.00_224_1/conv_pw_12_bn_1/batchnorm/sub", "op": "Const", "attr": {"value": {"tensor": {"dtype": "DT_FLOAT", "tensorShape": {"dim": [{"size": "1024"}]}}}, "dtype": {"type": "DT_FLOAT"}}}, {"name": "StatefulPartitionedCall/mobilenet_1.00_224_1/conv_dw_13_1/depthwise/ReadVariableOp", "op": "Const", "attr": {"value": {"tensor": {"dtype": "DT_FLOAT", "tensorShape": {"dim": [{"size": "3"}, {"size": "3"}, {"size": "1024"}, {"size": "1"}]}}}, "dtype": {"type": "DT_FLOAT"}}}, {"name": "StatefulPartitionedCall/mobilenet_1.00_224_1/conv_dw_13_bn_1/batchnorm/mul", "op": "Const", "attr": {"value": {"tensor": {"dtype": "DT_FLOAT", "tensorShape": {"dim": [{"size": "1024"}]}}}, "dtype": {"type": "DT_FLOAT"}}}, {"name": "StatefulPartitionedCall/mobilenet_1.00_224_1/conv_dw_13_bn_1/batchnorm/sub", "op": "Const", "attr": {"value": {"tensor": {"dtype": "DT_FLOAT", "tensorShape": {"dim": [{"size": "1024"}]}}}, "dtype": {"type": "DT_FLOAT"}}}, {"name": "StatefulPartitionedCall/mobilenet_1.00_224_1/conv_pw_13_1/convolution/merged_input", "op": "Const", "attr": {"value": {"tensor": {"dtype": "DT_FLOAT", "tensorShape": {"dim": [{"size": "1"}, {"size": "1"}, {"size": "1024"}, {"size": "1024"}]}}}, "dtype": {"type": "DT_FLOAT"}}}, {"name": "StatefulPartitionedCall/mobilenet_1.00_224_1/conv_pw_13_bn_1/batchnorm/sub", "op": "Const", "attr": {"value": {"tensor": {"dtype": "DT_FLOAT", "tensorShape": {"dim": [{"size": "1024"}]}}}, "dtype": {"type": "DT_FLOAT"}}}, {"name": "StatefulPartitionedCall/mobilenet_1.00_224_1/global_average_pooling2d_1/Mean/reduction_indices", "op": "Const", "attr": {"value": {"tensor": {"dtype": "DT_INT32", "tensorShape": {"dim": [{"size": "2"}]}}}, "dtype": {"type": "DT_INT32"}}}, {"name": "StatefulPartitionedCall/mobilenet_1.00_224_1/conv_preds_1/convolution/ReadVariableOp", "op": "Const", "attr": {"value": {"tensor": {"dtype": "DT_FLOAT", "tensorShape": {"dim": [{"size": "1"}, {"size": "1"}, {"size": "1024"}, {"size": "1000"}]}}}, "dtype": {"type": "DT_FLOAT"}}}, {"name": "StatefulPartitionedCall/mobilenet_1.00_224_1/conv_preds_1/Squeeze", "op": "Const", "attr": {"value": {"tensor": {"dtype": "DT_FLOAT", "tensorShape": {"dim": [{"size": "1000"}]}}}, "dtype": {"type": "DT_FLOAT"}}}, {"name": "StatefulPartitionedCall/mobilenet_1.00_224_1/reshape_2_1/strided_slice/stack", "op": "Const", "attr": {"value": {"tensor": {"dtype": "DT_INT32", "tensorShape": {"dim": [{"size": "1"}]}}}, "dtype": {"type": "DT_INT32"}}}, {"name": "StatefulPartitionedCall/mobilenet_1.00_224_1/reshape_2_1/strided_slice/stack_1", "op": "Const", "attr": {"value": {"tensor": {"dtype": "DT_INT32", "tensorShape": {"dim": [{"size": "1"}]}}}, "dtype": {"type": "DT_INT32"}}}, {"name": "StatefulPartitionedCall/mobilenet_1.00_224_1/reshape_2_1/strided_slice/stack_2", "op": "Const", "attr": {"value": {"tensor": {"dtype": "DT_INT32", "tensorShape": {"dim": [{"size": "1"}]}}}, "dtype": {"type": "DT_INT32"}}}, {"name": "StatefulPartitionedCall/mobilenet_1.00_224_1/reshape_2_1/Reshape/shape/1", "op": "Const", "attr": {"value": {"tensor": {"dtype": "DT_INT32", "tensorShape": {}}}, "dtype": {"type": "DT_INT32"}}}, {"name": "keras_tensor", "op": "Placeholder", "attr": {"shape": {"shape": {"dim": [{"size": "-1"}, {"size": "224"}, {"size": "224"}, {"size": "3"}]}}, "dtype": {"type": "DT_FLOAT"}}}, {"name": "StatefulPartitionedCall/mobilenet_1.00_224_1/conv1_relu_1/Relu6", "op": "_FusedConv2D", "input": ["keras_tensor", "StatefulPartitionedCall/mobilenet_1.00_224_1/conv1_1/convolution/merged_input", "StatefulPartitionedCall/mobilenet_1.00_224_1/conv1_bn_1/batchnorm/sub"], "device": "/device:CPU:0", "attr": {"num_host_args": {"i": "0"}, "data_format": {"s": "TkhXQw=="}, "filter_format": {"s": "SFdJTw=="}, "strides": {"list": {"i": ["1", "2", "2", "1"]}}, "num_args": {"i": "1"}, "fused_ops": {"list": {"s": ["Qmlhc0FkZA==", "UmVsdTY="]}}, "TArgs": {"list": {"type": ["DT_FLOAT"]}}, "padding": {"s": "U0FNRQ=="}, "use_cudnn_on_gpu": {"b": true}, "leakyrelu_alpha": {"f": 0.2}, "epsilon": {"f": 0.0}, "T": {"type": "DT_FLOAT"}, "explicit_paddings": {"list": {}}, "dilations": {"list": {"i": ["1", "1", "1", "1"]}}}}, {"name": "StatefulPartitionedCall/mobilenet_1.00_224_1/conv_dw_1_1/depthwise", "op": "DepthwiseConv2dNative", "input": ["StatefulPartitionedCall/mobilenet_1.00_224_1/conv1_relu_1/Relu6", "StatefulPartitionedCall/mobilenet_1.00_224_1/conv_dw_1_1/depthwise/ReadVariableOp"], "attr": {"padding": {"s": "U0FNRQ=="}, "data_format": {"s": "TkhXQw=="}, "T": {"type": "DT_FLOAT"}, "explicit_paddings": {"list": {}}, "dilations": {"list": {"i": ["1", "1", "1", "1"]}}, "strides": {"list": {"i": ["1", "1", "1", "1"]}}}}, {"name": "StatefulPartitionedCall/mobilenet_1.00_224_1/conv_dw_1_bn_1/batchnorm/mul_1", "op": "Mul", "input": ["StatefulPartitionedCall/mobilenet_1.00_224_1/conv_dw_1_1/depthwise", "StatefulPartitionedCall/mobilenet_1.00_224_1/conv_dw_1_bn_1/batchnorm/mul"], "attr": {"T": {"type": "DT_FLOAT"}}}, {"name": "StatefulPartitionedCall/mobilenet_1.00_224_1/conv_dw_1_bn_1/batchnorm/add_1", "op": "AddV2", "input": ["StatefulPartitionedCall/mobilenet_1.00_224_1/conv_dw_1_bn_1/batchnorm/mul_1", "StatefulPartitionedCall/mobilenet_1.00_224_1/conv_dw_1_bn_1/batchnorm/sub"], "attr": {"T": {"type": "DT_FLOAT"}}}, {"name": "StatefulPartitionedCall/mobilenet_1.00_224_1/conv_dw_1_relu_1/Relu6", "op": "Relu6", "input": ["StatefulPartitionedCall/mobilenet_1.00_224_1/conv_dw_1_bn_1/batchnorm/add_1"], "attr": {"T": {"type": "DT_FLOAT"}}}, {"name": "StatefulPartitionedCall/mobilenet_1.00_224_1/conv_pw_1_relu_1/Relu6", "op": "_FusedConv2D", "input": ["StatefulPartitionedCall/mobilenet_1.00_224_1/conv_dw_1_relu_1/Relu6", "StatefulPartitionedCall/mobilenet_1.00_224_1/conv_pw_1_1/convolution/merged_input", "StatefulPartitionedCall/mobilenet_1.00_224_1/conv_pw_1_bn_1/batchnorm/sub"], "device": "/device:CPU:0", "attr": {"num_host_args": {"i": "0"}, "data_format": {"s": "TkhXQw=="}, "filter_format": {"s": "SFdJTw=="}, "strides": {"list": {"i": ["1", "1", "1", "1"]}}, "num_args": {"i": "1"}, "fused_ops": {"list": {"s": ["Qmlhc0FkZA==", "UmVsdTY="]}}, "TArgs": {"list": {"type": ["DT_FLOAT"]}}, "padding": {"s": "U0FNRQ=="}, "use_cudnn_on_gpu": {"b": true}, "leakyrelu_alpha": {"f": 0.2}, "epsilon": {"f": 0.0}, "T": {"type": "DT_FLOAT"}, "explicit_paddings": {"list": {}}, "dilations": {"list": {"i": ["1", "1", "1", "1"]}}}}, {"name": "StatefulPartitionedCall/mobilenet_1.00_224_1/conv_pad_2_1/Pad", "op": "Pad", "input": ["StatefulPartitionedCall/mobilenet_1.00_224_1/conv_pw_1_relu_1/Relu6", "StatefulPartitionedCall/mobilenet_1.00_224_1/conv_pad_2_1/Const"], "attr": {"Tpaddings": {"type": "DT_INT32"}, "T": {"type": "DT_FLOAT"}}}, {"name": "StatefulPartitionedCall/mobilenet_1.00_224_1/conv_dw_2_1/depthwise", "op": "DepthwiseConv2dNative", "input": ["StatefulPartitionedCall/mobilenet_1.00_224_1/conv_pad_2_1/Pad", "StatefulPartitionedCall/mobilenet_1.00_224_1/conv_dw_2_1/depthwise/ReadVariableOp"], "attr": {"padding": {"s": "VkFMSUQ="}, "data_format": {"s": "TkhXQw=="}, "T": {"type": "DT_FLOAT"}, "explicit_paddings": {"list": {}}, "dilations": {"list": {"i": ["1", "1", "1", "1"]}}, "strides": {"list": {"i": ["1", "2", "2", "1"]}}}}, {"name": "StatefulPartitionedCall/mobilenet_1.00_224_1/conv_dw_2_bn_1/batchnorm/mul_1", "op": "Mul", "input": ["StatefulPartitionedCall/mobilenet_1.00_224_1/conv_dw_2_1/depthwise", "StatefulPartitionedCall/mobilenet_1.00_224_1/conv_dw_2_bn_1/batchnorm/mul"], "attr": {"T": {"type": "DT_FLOAT"}}}, {"name": "StatefulPartitionedCall/mobilenet_1.00_224_1/conv_dw_2_bn_1/batchnorm/add_1", "op": "AddV2", "input": ["StatefulPartitionedCall/mobilenet_1.00_224_1/conv_dw_2_bn_1/batchnorm/mul_1", "StatefulPartitionedCall/mobilenet_1.00_224_1/conv_dw_2_bn_1/batchnorm/sub"], "attr": {"T": {"type": "DT_FLOAT"}}}, {"name": "StatefulPartitionedCall/mobilenet_1.00_224_1/conv_dw_2_relu_1/Relu6", "op": "Relu6", "input": ["StatefulPartitionedCall/mobilenet_1.00_224_1/conv_dw_2_bn_1/batchnorm/add_1"], "attr": {"T": {"type": "DT_FLOAT"}}}, {"name": "StatefulPartitionedCall/mobilenet_1.00_224_1/conv_pw_2_relu_1/Relu6", "op": "_FusedConv2D", "input": ["StatefulPartitionedCall/mobilenet_1.00_224_1/conv_dw_2_relu_1/Relu6", "StatefulPartitionedCall/mobilenet_1.00_224_1/conv_pw_2_1/convolution/merged_input", "StatefulPartitionedCall/mobilenet_1.00_224_1/conv_pw_2_bn_1/batchnorm/sub"], "device": "/device:CPU:0", "attr": {"num_host_args": {"i": "0"}, "data_format": {"s": "TkhXQw=="}, "filter_format": {"s": "SFdJTw=="}, "fused_ops": {"list": {"s": ["Qmlhc0FkZA==", "UmVsdTY="]}}, "num_args": {"i": "1"}, "strides": {"list": {"i": ["1", "1", "1", "1"]}}, "TArgs": {"list": {"type": ["DT_FLOAT"]}}, "padding": {"s": "U0FNRQ=="}, "use_cudnn_on_gpu": {"b": true}, "leakyrelu_alpha": {"f": 0.2}, "epsilon": {"f": 0.0}, "T": {"type": "DT_FLOAT"}, "explicit_paddings": {"list": {}}, "dilations": {"list": {"i": ["1", "1", "1", "1"]}}}}, {"name": "StatefulPartitionedCall/mobilenet_1.00_224_1/conv_dw_3_1/depthwise", "op": "DepthwiseConv2dNative", "input": ["StatefulPartitionedCall/mobilenet_1.00_224_1/conv_pw_2_relu_1/Relu6", "StatefulPartitionedCall/mobilenet_1.00_224_1/conv_dw_3_1/depthwise/ReadVariableOp"], "attr": {"padding": {"s": "U0FNRQ=="}, "data_format": {"s": "TkhXQw=="}, "T": {"type": "DT_FLOAT"}, "explicit_paddings": {"list": {}}, "dilations": {"list": {"i": ["1", "1", "1", "1"]}}, "strides": {"list": {"i": ["1", "1", "1", "1"]}}}}, {"name": "StatefulPartitionedCall/mobilenet_1.00_224_1/conv_dw_3_bn_1/batchnorm/mul_1", "op": "Mul", "input": ["StatefulPartitionedCall/mobilenet_1.00_224_1/conv_dw_3_1/depthwise", "StatefulPartitionedCall/mobilenet_1.00_224_1/conv_dw_3_bn_1/batchnorm/mul"], "attr": {"T": {"type": "DT_FLOAT"}}}, {"name": "StatefulPartitionedCall/mobilenet_1.00_224_1/conv_dw_3_bn_1/batchnorm/add_1", "op": "AddV2", "input": ["StatefulPartitionedCall/mobilenet_1.00_224_1/conv_dw_3_bn_1/batchnorm/mul_1", "StatefulPartitionedCall/mobilenet_1.00_224_1/conv_dw_3_bn_1/batchnorm/sub"], "attr": {"T": {"type": "DT_FLOAT"}}}, {"name": "StatefulPartitionedCall/mobilenet_1.00_224_1/conv_dw_3_relu_1/Relu6", "op": "Relu6", "input": ["StatefulPartitionedCall/mobilenet_1.00_224_1/conv_dw_3_bn_1/batchnorm/add_1"], "attr": {"T": {"type": "DT_FLOAT"}}}, {"name": "StatefulPartitionedCall/mobilenet_1.00_224_1/conv_pw_3_relu_1/Relu6", "op": "_FusedConv2D", "input": ["StatefulPartitionedCall/mobilenet_1.00_224_1/conv_dw_3_relu_1/Relu6", "StatefulPartitionedCall/mobilenet_1.00_224_1/conv_pw_3_1/convolution/merged_input", "StatefulPartitionedCall/mobilenet_1.00_224_1/conv_pw_3_bn_1/batchnorm/sub"], "device": "/device:CPU:0", "attr": {"num_host_args": {"i": "0"}, "data_format": {"s": "TkhXQw=="}, "filter_format": {"s": "SFdJTw=="}, "strides": {"list": {"i": ["1", "1", "1", "1"]}}, "num_args": {"i": "1"}, "fused_ops": {"list": {"s": ["Qmlhc0FkZA==", "UmVsdTY="]}}, "TArgs": {"list": {"type": ["DT_FLOAT"]}}, "padding": {"s": "U0FNRQ=="}, "use_cudnn_on_gpu": {"b": true}, "leakyrelu_alpha": {"f": 0.2}, "epsilon": {"f": 0.0}, "T": {"type": "DT_FLOAT"}, "explicit_paddings": {"list": {}}, "dilations": {"list": {"i": ["1", "1", "1", "1"]}}}}, {"name": "StatefulPartitionedCall/mobilenet_1.00_224_1/conv_pad_4_1/Pad", "op": "Pad", "input": ["StatefulPartitionedCall/mobilenet_1.00_224_1/conv_pw_3_relu_1/Relu6", "StatefulPartitionedCall/mobilenet_1.00_224_1/conv_pad_4_1/Const"], "attr": {"Tpaddings": {"type": "DT_INT32"}, "T": {"type": "DT_FLOAT"}}}, {"name": "StatefulPartitionedCall/mobilenet_1.00_224_1/conv_dw_4_1/depthwise", "op": "DepthwiseConv2dNative", "input": ["StatefulPartitionedCall/mobilenet_1.00_224_1/conv_pad_4_1/Pad", "StatefulPartitionedCall/mobilenet_1.00_224_1/conv_dw_4_1/depthwise/ReadVariableOp"], "attr": {"padding": {"s": "VkFMSUQ="}, "data_format": {"s": "TkhXQw=="}, "T": {"type": "DT_FLOAT"}, "explicit_paddings": {"list": {}}, "dilations": {"list": {"i": ["1", "1", "1", "1"]}}, "strides": {"list": {"i": ["1", "2", "2", "1"]}}}}, {"name": "StatefulPartitionedCall/mobilenet_1.00_224_1/conv_dw_4_bn_1/batchnorm/mul_1", "op": "Mul", "input": ["StatefulPartitionedCall/mobilenet_1.00_224_1/conv_dw_4_1/depthwise", "StatefulPartitionedCall/mobilenet_1.00_224_1/conv_dw_4_bn_1/batchnorm/mul"], "attr": {"T": {"type": "DT_FLOAT"}}}, {"name": "StatefulPartitionedCall/mobilenet_1.00_224_1/conv_dw_4_bn_1/batchnorm/add_1", "op": "AddV2", "input": ["StatefulPartitionedCall/mobilenet_1.00_224_1/conv_dw_4_bn_1/batchnorm/mul_1", "StatefulPartitionedCall/mobilenet_1.00_224_1/conv_dw_4_bn_1/batchnorm/sub"], "attr": {"T": {"type": "DT_FLOAT"}}}, {"name": "StatefulPartitionedCall/mobilenet_1.00_224_1/conv_dw_4_relu_1/Relu6", "op": "Relu6", "input": ["StatefulPartitionedCall/mobilenet_1.00_224_1/conv_dw_4_bn_1/batchnorm/add_1"], "attr": {"T": {"type": "DT_FLOAT"}}}, {"name": "StatefulPartitionedCall/mobilenet_1.00_224_1/conv_pw_4_relu_1/Relu6", "op": "_FusedConv2D", "input": ["StatefulPartitionedCall/mobilenet_1.00_224_1/conv_dw_4_relu_1/Relu6", "StatefulPartitionedCall/mobilenet_1.00_224_1/conv_pw_4_1/convolution/merged_input", "StatefulPartitionedCall/mobilenet_1.00_224_1/conv_pw_4_bn_1/batchnorm/sub"], "device": "/device:CPU:0", "attr": {"num_host_args": {"i": "0"}, "data_format": {"s": "TkhXQw=="}, "filter_format": {"s": "SFdJTw=="}, "strides": {"list": {"i": ["1", "1", "1", "1"]}}, "num_args": {"i": "1"}, "fused_ops": {"list": {"s": ["Qmlhc0FkZA==", "UmVsdTY="]}}, "TArgs": {"list": {"type": ["DT_FLOAT"]}}, "padding": {"s": "U0FNRQ=="}, "use_cudnn_on_gpu": {"b": true}, "leakyrelu_alpha": {"f": 0.2}, "epsilon": {"f": 0.0}, "T": {"type": "DT_FLOAT"}, "explicit_paddings": {"list": {}}, "dilations": {"list": {"i": ["1", "1", "1", "1"]}}}}, {"name": "StatefulPartitionedCall/mobilenet_1.00_224_1/conv_dw_5_1/depthwise", "op": "DepthwiseConv2dNative", "input": ["StatefulPartitionedCall/mobilenet_1.00_224_1/conv_pw_4_relu_1/Relu6", "StatefulPartitionedCall/mobilenet_1.00_224_1/conv_dw_5_1/depthwise/ReadVariableOp"], "attr": {"padding": {"s": "U0FNRQ=="}, "data_format": {"s": "TkhXQw=="}, "T": {"type": "DT_FLOAT"}, "explicit_paddings": {"list": {}}, "dilations": {"list": {"i": ["1", "1", "1", "1"]}}, "strides": {"list": {"i": ["1", "1", "1", "1"]}}}}, {"name": "StatefulPartitionedCall/mobilenet_1.00_224_1/conv_dw_5_bn_1/batchnorm/mul_1", "op": "Mul", "input": ["StatefulPartitionedCall/mobilenet_1.00_224_1/conv_dw_5_1/depthwise", "StatefulPartitionedCall/mobilenet_1.00_224_1/conv_dw_5_bn_1/batchnorm/mul"], "attr": {"T": {"type": "DT_FLOAT"}}}, {"name": "StatefulPartitionedCall/mobilenet_1.00_224_1/conv_dw_5_bn_1/batchnorm/add_1", "op": "AddV2", "input": ["StatefulPartitionedCall/mobilenet_1.00_224_1/conv_dw_5_bn_1/batchnorm/mul_1", "StatefulPartitionedCall/mobilenet_1.00_224_1/conv_dw_5_bn_1/batchnorm/sub"], "attr": {"T": {"type": "DT_FLOAT"}}}, {"name": "StatefulPartitionedCall/mobilenet_1.00_224_1/conv_dw_5_relu_1/Relu6", "op": "Relu6", "input": ["StatefulPartitionedCall/mobilenet_1.00_224_1/conv_dw_5_bn_1/batchnorm/add_1"], "attr": {"T": {"type": "DT_FLOAT"}}}, {"name": "StatefulPartitionedCall/mobilenet_1.00_224_1/conv_pw_5_relu_1/Relu6", "op": "_FusedConv2D", "input": ["StatefulPartitionedCall/mobilenet_1.00_224_1/conv_dw_5_relu_1/Relu6", "StatefulPartitionedCall/mobilenet_1.00_224_1/conv_pw_5_1/convolution/merged_input", "StatefulPartitionedCall/mobilenet_1.00_224_1/conv_pw_5_bn_1/batchnorm/sub"], "device": "/device:CPU:0", "attr": {"num_host_args": {"i": "0"}, "data_format": {"s": "TkhXQw=="}, "filter_format": {"s": "SFdJTw=="}, "strides": {"list": {"i": ["1", "1", "1", "1"]}}, "num_args": {"i": "1"}, "fused_ops": {"list": {"s": ["Qmlhc0FkZA==", "UmVsdTY="]}}, "TArgs": {"list": {"type": ["DT_FLOAT"]}}, "padding": {"s": "U0FNRQ=="}, "use_cudnn_on_gpu": {"b": true}, "leakyrelu_alpha": {"f": 0.2}, "epsilon": {"f": 0.0}, "T": {"type": "DT_FLOAT"}, "explicit_paddings": {"list": {}}, "dilations": {"list": {"i": ["1", "1", "1", "1"]}}}}, {"name": "StatefulPartitionedCall/mobilenet_1.00_224_1/conv_pad_6_1/Pad", "op": "Pad", "input": ["StatefulPartitionedCall/mobilenet_1.00_224_1/conv_pw_5_relu_1/Relu6", "StatefulPartitionedCall/mobilenet_1.00_224_1/conv_pad_6_1/Const"], "attr": {"Tpaddings": {"type": "DT_INT32"}, "T": {"type": "DT_FLOAT"}}}, {"name": "StatefulPartitionedCall/mobilenet_1.00_224_1/conv_dw_6_1/depthwise", "op": "DepthwiseConv2dNative", "input": ["StatefulPartitionedCall/mobilenet_1.00_224_1/conv_pad_6_1/Pad", "StatefulPartitionedCall/mobilenet_1.00_224_1/conv_dw_6_1/depthwise/ReadVariableOp"], "attr": {"padding": {"s": "VkFMSUQ="}, "data_format": {"s": "TkhXQw=="}, "T": {"type": "DT_FLOAT"}, "explicit_paddings": {"list": {}}, "dilations": {"list": {"i": ["1", "1", "1", "1"]}}, "strides": {"list": {"i": ["1", "2", "2", "1"]}}}}, {"name": "StatefulPartitionedCall/mobilenet_1.00_224_1/conv_dw_6_bn_1/batchnorm/mul_1", "op": "Mul", "input": ["StatefulPartitionedCall/mobilenet_1.00_224_1/conv_dw_6_1/depthwise", "StatefulPartitionedCall/mobilenet_1.00_224_1/conv_dw_6_bn_1/batchnorm/mul"], "attr": {"T": {"type": "DT_FLOAT"}}}, {"name": "StatefulPartitionedCall/mobilenet_1.00_224_1/conv_dw_6_bn_1/batchnorm/add_1", "op": "AddV2", "input": ["StatefulPartitionedCall/mobilenet_1.00_224_1/conv_dw_6_bn_1/batchnorm/mul_1", "StatefulPartitionedCall/mobilenet_1.00_224_1/conv_dw_6_bn_1/batchnorm/sub"], "attr": {"T": {"type": "DT_FLOAT"}}}, {"name": "StatefulPartitionedCall/mobilenet_1.00_224_1/conv_dw_6_relu_1/Relu6", "op": "Relu6", "input": ["StatefulPartitionedCall/mobilenet_1.00_224_1/conv_dw_6_bn_1/batchnorm/add_1"], "attr": {"T": {"type": "DT_FLOAT"}}}, {"name": "StatefulPartitionedCall/mobilenet_1.00_224_1/conv_pw_6_relu_1/Relu6", "op": "_FusedConv2D", "input": ["StatefulPartitionedCall/mobilenet_1.00_224_1/conv_dw_6_relu_1/Relu6", "StatefulPartitionedCall/mobilenet_1.00_224_1/conv_pw_6_1/convolution/merged_input", "StatefulPartitionedCall/mobilenet_1.00_224_1/conv_pw_6_bn_1/batchnorm/sub"], "device": "/device:CPU:0", "attr": {"num_host_args": {"i": "0"}, "data_format": {"s": "TkhXQw=="}, "filter_format": {"s": "SFdJTw=="}, "fused_ops": {"list": {"s": ["Qmlhc0FkZA==", "UmVsdTY="]}}, "num_args": {"i": "1"}, "strides": {"list": {"i": ["1", "1", "1", "1"]}}, "TArgs": {"list": {"type": ["DT_FLOAT"]}}, "padding": {"s": "U0FNRQ=="}, "use_cudnn_on_gpu": {"b": true}, "leakyrelu_alpha": {"f": 0.2}, "epsilon": {"f": 0.0}, "T": {"type": "DT_FLOAT"}, "explicit_paddings": {"list": {}}, "dilations": {"list": {"i": ["1", "1", "1", "1"]}}}}, {"name": "StatefulPartitionedCall/mobilenet_1.00_224_1/conv_dw_7_1/depthwise", "op": "DepthwiseConv2dNative", "input": ["StatefulPartitionedCall/mobilenet_1.00_224_1/conv_pw_6_relu_1/Relu6", "StatefulPartitionedCall/mobilenet_1.00_224_1/conv_dw_7_1/depthwise/ReadVariableOp"], "attr": {"padding": {"s": "U0FNRQ=="}, "data_format": {"s": "TkhXQw=="}, "T": {"type": "DT_FLOAT"}, "explicit_paddings": {"list": {}}, "dilations": {"list": {"i": ["1", "1", "1", "1"]}}, "strides": {"list": {"i": ["1", "1", "1", "1"]}}}}, {"name": "StatefulPartitionedCall/mobilenet_1.00_224_1/conv_dw_7_bn_1/batchnorm/mul_1", "op": "Mul", "input": ["StatefulPartitionedCall/mobilenet_1.00_224_1/conv_dw_7_1/depthwise", "StatefulPartitionedCall/mobilenet_1.00_224_1/conv_dw_7_bn_1/batchnorm/mul"], "attr": {"T": {"type": "DT_FLOAT"}}}, {"name": "StatefulPartitionedCall/mobilenet_1.00_224_1/conv_dw_7_bn_1/batchnorm/add_1", "op": "AddV2", "input": ["StatefulPartitionedCall/mobilenet_1.00_224_1/conv_dw_7_bn_1/batchnorm/mul_1", "StatefulPartitionedCall/mobilenet_1.00_224_1/conv_dw_7_bn_1/batchnorm/sub"], "attr": {"T": {"type": "DT_FLOAT"}}}, {"name": "StatefulPartitionedCall/mobilenet_1.00_224_1/conv_dw_7_relu_1/Relu6", "op": "Relu6", "input": ["StatefulPartitionedCall/mobilenet_1.00_224_1/conv_dw_7_bn_1/batchnorm/add_1"], "attr": {"T": {"type": "DT_FLOAT"}}}, {"name": "StatefulPartitionedCall/mobilenet_1.00_224_1/conv_pw_7_relu_1/Relu6", "op": "_FusedConv2D", "input": ["StatefulPartitionedCall/mobilenet_1.00_224_1/conv_dw_7_relu_1/Relu6", "StatefulPartitionedCall/mobilenet_1.00_224_1/conv_pw_7_1/convolution/merged_input", "StatefulPartitionedCall/mobilenet_1.00_224_1/conv_pw_7_bn_1/batchnorm/sub"], "device": "/device:CPU:0", "attr": {"num_host_args": {"i": "0"}, "data_format": {"s": "TkhXQw=="}, "filter_format": {"s": "SFdJTw=="}, "fused_ops": {"list": {"s": ["Qmlhc0FkZA==", "UmVsdTY="]}}, "num_args": {"i": "1"}, "strides": {"list": {"i": ["1", "1", "1", "1"]}}, "TArgs": {"list": {"type": ["DT_FLOAT"]}}, "padding": {"s": "U0FNRQ=="}, "use_cudnn_on_gpu": {"b": true}, "leakyrelu_alpha": {"f": 0.2}, "epsilon": {"f": 0.0}, "T": {"type": "DT_FLOAT"}, "explicit_paddings": {"list": {}}, "dilations": {"list": {"i": ["1", "1", "1", "1"]}}}}, {"name": "StatefulPartitionedCall/mobilenet_1.00_224_1/conv_dw_8_1/depthwise", "op": "DepthwiseConv2dNative", "input": ["StatefulPartitionedCall/mobilenet_1.00_224_1/conv_pw_7_relu_1/Relu6", "StatefulPartitionedCall/mobilenet_1.00_224_1/conv_dw_8_1/depthwise/ReadVariableOp"], "attr": {"padding": {"s": "U0FNRQ=="}, "data_format": {"s": "TkhXQw=="}, "T": {"type": "DT_FLOAT"}, "explicit_paddings": {"list": {}}, "dilations": {"list": {"i": ["1", "1", "1", "1"]}}, "strides": {"list": {"i": ["1", "1", "1", "1"]}}}}, {"name": "StatefulPartitionedCall/mobilenet_1.00_224_1/conv_dw_8_bn_1/batchnorm/mul_1", "op": "Mul", "input": ["StatefulPartitionedCall/mobilenet_1.00_224_1/conv_dw_8_1/depthwise", "StatefulPartitionedCall/mobilenet_1.00_224_1/conv_dw_8_bn_1/batchnorm/mul"], "attr": {"T": {"type": "DT_FLOAT"}}}, {"name": "StatefulPartitionedCall/mobilenet_1.00_224_1/conv_dw_8_bn_1/batchnorm/add_1", "op": "AddV2", "input": ["StatefulPartitionedCall/mobilenet_1.00_224_1/conv_dw_8_bn_1/batchnorm/mul_1", "StatefulPartitionedCall/mobilenet_1.00_224_1/conv_dw_8_bn_1/batchnorm/sub"], "attr": {"T": {"type": "DT_FLOAT"}}}, {"name": "StatefulPartitionedCall/mobilenet_1.00_224_1/conv_dw_8_relu_1/Relu6", "op": "Relu6", "input": ["StatefulPartitionedCall/mobilenet_1.00_224_1/conv_dw_8_bn_1/batchnorm/add_1"], "attr": {"T": {"type": "DT_FLOAT"}}}, {"name": "StatefulPartitionedCall/mobilenet_1.00_224_1/conv_pw_8_relu_1/Relu6", "op": "_FusedConv2D", "input": ["StatefulPartitionedCall/mobilenet_1.00_224_1/conv_dw_8_relu_1/Relu6", "StatefulPartitionedCall/mobilenet_1.00_224_1/conv_pw_8_1/convolution/merged_input", "StatefulPartitionedCall/mobilenet_1.00_224_1/conv_pw_8_bn_1/batchnorm/sub"], "device": "/device:CPU:0", "attr": {"num_host_args": {"i": "0"}, "data_format": {"s": "TkhXQw=="}, "filter_format": {"s": "SFdJTw=="}, "fused_ops": {"list": {"s": ["Qmlhc0FkZA==", "UmVsdTY="]}}, "num_args": {"i": "1"}, "strides": {"list": {"i": ["1", "1", "1", "1"]}}, "TArgs": {"list": {"type": ["DT_FLOAT"]}}, "padding": {"s": "U0FNRQ=="}, "use_cudnn_on_gpu": {"b": true}, "leakyrelu_alpha": {"f": 0.2}, "epsilon": {"f": 0.0}, "T": {"type": "DT_FLOAT"}, "explicit_paddings": {"list": {}}, "dilations": {"list": {"i": ["1", "1", "1", "1"]}}}}, {"name": "StatefulPartitionedCall/mobilenet_1.00_224_1/conv_dw_9_1/depthwise", "op": "DepthwiseConv2dNative", "input": ["StatefulPartitionedCall/mobilenet_1.00_224_1/conv_pw_8_relu_1/Relu6", "StatefulPartitionedCall/mobilenet_1.00_224_1/conv_dw_9_1/depthwise/ReadVariableOp"], "attr": {"padding": {"s": "U0FNRQ=="}, "data_format": {"s": "TkhXQw=="}, "T": {"type": "DT_FLOAT"}, "explicit_paddings": {"list": {}}, "dilations": {"list": {"i": ["1", "1", "1", "1"]}}, "strides": {"list": {"i": ["1", "1", "1", "1"]}}}}, {"name": "StatefulPartitionedCall/mobilenet_1.00_224_1/conv_dw_9_bn_1/batchnorm/mul_1", "op": "Mul", "input": ["StatefulPartitionedCall/mobilenet_1.00_224_1/conv_dw_9_1/depthwise", "StatefulPartitionedCall/mobilenet_1.00_224_1/conv_dw_9_bn_1/batchnorm/mul"], "attr": {"T": {"type": "DT_FLOAT"}}}, {"name": "StatefulPartitionedCall/mobilenet_1.00_224_1/conv_dw_9_bn_1/batchnorm/add_1", "op": "AddV2", "input": ["StatefulPartitionedCall/mobilenet_1.00_224_1/conv_dw_9_bn_1/batchnorm/mul_1", "StatefulPartitionedCall/mobilenet_1.00_224_1/conv_dw_9_bn_1/batchnorm/sub"], "attr": {"T": {"type": "DT_FLOAT"}}}, {"name": "StatefulPartitionedCall/mobilenet_1.00_224_1/conv_dw_9_relu_1/Relu6", "op": "Relu6", "input": ["StatefulPartitionedCall/mobilenet_1.00_224_1/conv_dw_9_bn_1/batchnorm/add_1"], "attr": {"T": {"type": "DT_FLOAT"}}}, {"name": "StatefulPartitionedCall/mobilenet_1.00_224_1/conv_pw_9_relu_1/Relu6", "op": "_FusedConv2D", "input": ["StatefulPartitionedCall/mobilenet_1.00_224_1/conv_dw_9_relu_1/Relu6", "StatefulPartitionedCall/mobilenet_1.00_224_1/conv_pw_9_1/convolution/merged_input", "StatefulPartitionedCall/mobilenet_1.00_224_1/conv_pw_9_bn_1/batchnorm/sub"], "device": "/device:CPU:0", "attr": {"num_host_args": {"i": "0"}, "data_format": {"s": "TkhXQw=="}, "filter_format": {"s": "SFdJTw=="}, "fused_ops": {"list": {"s": ["Qmlhc0FkZA==", "UmVsdTY="]}}, "num_args": {"i": "1"}, "strides": {"list": {"i": ["1", "1", "1", "1"]}}, "TArgs": {"list": {"type": ["DT_FLOAT"]}}, "padding": {"s": "U0FNRQ=="}, "use_cudnn_on_gpu": {"b": true}, "leakyrelu_alpha": {"f": 0.2}, "epsilon": {"f": 0.0}, "T": {"type": "DT_FLOAT"}, "explicit_paddings": {"list": {}}, "dilations": {"list": {"i": ["1", "1", "1", "1"]}}}}, {"name": "StatefulPartitionedCall/mobilenet_1.00_224_1/conv_dw_10_1/depthwise", "op": "DepthwiseConv2dNative", "input": ["StatefulPartitionedCall/mobilenet_1.00_224_1/conv_pw_9_relu_1/Relu6", "StatefulPartitionedCall/mobilenet_1.00_224_1/conv_dw_10_1/depthwise/ReadVariableOp"], "attr": {"padding": {"s": "U0FNRQ=="}, "data_format": {"s": "TkhXQw=="}, "T": {"type": "DT_FLOAT"}, "explicit_paddings": {"list": {}}, "dilations": {"list": {"i": ["1", "1", "1", "1"]}}, "strides": {"list": {"i": ["1", "1", "1", "1"]}}}}, {"name": "StatefulPartitionedCall/mobilenet_1.00_224_1/conv_dw_10_bn_1/batchnorm/mul_1", "op": "Mul", "input": ["StatefulPartitionedCall/mobilenet_1.00_224_1/conv_dw_10_1/depthwise", "StatefulPartitionedCall/mobilenet_1.00_224_1/conv_dw_10_bn_1/batchnorm/mul"], "attr": {"T": {"type": "DT_FLOAT"}}}, {"name": "StatefulPartitionedCall/mobilenet_1.00_224_1/conv_dw_10_bn_1/batchnorm/add_1", "op": "AddV2", "input": ["StatefulPartitionedCall/mobilenet_1.00_224_1/conv_dw_10_bn_1/batchnorm/mul_1", "StatefulPartitionedCall/mobilenet_1.00_224_1/conv_dw_10_bn_1/batchnorm/sub"], "attr": {"T": {"type": "DT_FLOAT"}}}, {"name": "StatefulPartitionedCall/mobilenet_1.00_224_1/conv_dw_10_relu_1/Relu6", "op": "Relu6", "input": ["StatefulPartitionedCall/mobilenet_1.00_224_1/conv_dw_10_bn_1/batchnorm/add_1"], "attr": {"T": {"type": "DT_FLOAT"}}}, {"name": "StatefulPartitionedCall/mobilenet_1.00_224_1/conv_pw_10_relu_1/Relu6", "op": "_FusedConv2D", "input": ["StatefulPartitionedCall/mobilenet_1.00_224_1/conv_dw_10_relu_1/Relu6", "StatefulPartitionedCall/mobilenet_1.00_224_1/conv_pw_10_1/convolution/merged_input", "StatefulPartitionedCall/mobilenet_1.00_224_1/conv_pw_10_bn_1/batchnorm/sub"], "device": "/device:CPU:0", "attr": {"num_host_args": {"i": "0"}, "data_format": {"s": "TkhXQw=="}, "filter_format": {"s": "SFdJTw=="}, "fused_ops": {"list": {"s": ["Qmlhc0FkZA==", "UmVsdTY="]}}, "num_args": {"i": "1"}, "strides": {"list": {"i": ["1", "1", "1", "1"]}}, "TArgs": {"list": {"type": ["DT_FLOAT"]}}, "padding": {"s": "U0FNRQ=="}, "use_cudnn_on_gpu": {"b": true}, "leakyrelu_alpha": {"f": 0.2}, "epsilon": {"f": 0.0}, "T": {"type": "DT_FLOAT"}, "explicit_paddings": {"list": {}}, "dilations": {"list": {"i": ["1", "1", "1", "1"]}}}}, {"name": "StatefulPartitionedCall/mobilenet_1.00_224_1/conv_dw_11_1/depthwise", "op": "DepthwiseConv2dNative", "input": ["StatefulPartitionedCall/mobilenet_1.00_224_1/conv_pw_10_relu_1/Relu6", "StatefulPartitionedCall/mobilenet_1.00_224_1/conv_dw_11_1/depthwise/ReadVariableOp"], "attr": {"padding": {"s": "U0FNRQ=="}, "data_format": {"s": "TkhXQw=="}, "T": {"type": "DT_FLOAT"}, "explicit_paddings": {"list": {}}, "dilations": {"list": {"i": ["1", "1", "1", "1"]}}, "strides": {"list": {"i": ["1", "1", "1", "1"]}}}}, {"name": "StatefulPartitionedCall/mobilenet_1.00_224_1/conv_dw_11_bn_1/batchnorm/mul_1", "op": "Mul", "input": ["StatefulPartitionedCall/mobilenet_1.00_224_1/conv_dw_11_1/depthwise", "StatefulPartitionedCall/mobilenet_1.00_224_1/conv_dw_11_bn_1/batchnorm/mul"], "attr": {"T": {"type": "DT_FLOAT"}}}, {"name": "StatefulPartitionedCall/mobilenet_1.00_224_1/conv_dw_11_bn_1/batchnorm/add_1", "op": "AddV2", "input": ["StatefulPartitionedCall/mobilenet_1.00_224_1/conv_dw_11_bn_1/batchnorm/mul_1", "StatefulPartitionedCall/mobilenet_1.00_224_1/conv_dw_11_bn_1/batchnorm/sub"], "attr": {"T": {"type": "DT_FLOAT"}}}, {"name": "StatefulPartitionedCall/mobilenet_1.00_224_1/conv_dw_11_relu_1/Relu6", "op": "Relu6", "input": ["StatefulPartitionedCall/mobilenet_1.00_224_1/conv_dw_11_bn_1/batchnorm/add_1"], "attr": {"T": {"type": "DT_FLOAT"}}}, {"name": "StatefulPartitionedCall/mobilenet_1.00_224_1/conv_pw_11_relu_1/Relu6", "op": "_FusedConv2D", "input": ["StatefulPartitionedCall/mobilenet_1.00_224_1/conv_dw_11_relu_1/Relu6", "StatefulPartitionedCall/mobilenet_1.00_224_1/conv_pw_11_1/convolution/merged_input", "StatefulPartitionedCall/mobilenet_1.00_224_1/conv_pw_11_bn_1/batchnorm/sub"], "device": "/device:CPU:0", "attr": {"num_host_args": {"i": "0"}, "data_format": {"s": "TkhXQw=="}, "filter_format": {"s": "SFdJTw=="}, "strides": {"list": {"i": ["1", "1", "1", "1"]}}, "num_args": {"i": "1"}, "fused_ops": {"list": {"s": ["Qmlhc0FkZA==", "UmVsdTY="]}}, "TArgs": {"list": {"type": ["DT_FLOAT"]}}, "padding": {"s": "U0FNRQ=="}, "use_cudnn_on_gpu": {"b": true}, "leakyrelu_alpha": {"f": 0.2}, "epsilon": {"f": 0.0}, "T": {"type": "DT_FLOAT"}, "explicit_paddings": {"list": {}}, "dilations": {"list": {"i": ["1", "1", "1", "1"]}}}}, {"name": "StatefulPartitionedCall/mobilenet_1.00_224_1/conv_pad_12_1/Pad", "op": "Pad", "input": ["StatefulPartitionedCall/mobilenet_1.00_224_1/conv_pw_11_relu_1/Relu6", "StatefulPartitionedCall/mobilenet_1.00_224_1/conv_pad_12_1/Const"], "attr": {"Tpaddings": {"type": "DT_INT32"}, "T": {"type": "DT_FLOAT"}}}, {"name": "StatefulPartitionedCall/mobilenet_1.00_224_1/conv_dw_12_1/depthwise", "op": "DepthwiseConv2dNative", "input": ["StatefulPartitionedCall/mobilenet_1.00_224_1/conv_pad_12_1/Pad", "StatefulPartitionedCall/mobilenet_1.00_224_1/conv_dw_12_1/depthwise/ReadVariableOp"], "attr": {"padding": {"s": "VkFMSUQ="}, "data_format": {"s": "TkhXQw=="}, "T": {"type": "DT_FLOAT"}, "explicit_paddings": {"list": {}}, "dilations": {"list": {"i": ["1", "1", "1", "1"]}}, "strides": {"list": {"i": ["1", "2", "2", "1"]}}}}, {"name": "StatefulPartitionedCall/mobilenet_1.00_224_1/conv_dw_12_bn_1/batchnorm/mul_1", "op": "Mul", "input": ["StatefulPartitionedCall/mobilenet_1.00_224_1/conv_dw_12_1/depthwise", "StatefulPartitionedCall/mobilenet_1.00_224_1/conv_dw_12_bn_1/batchnorm/mul"], "attr": {"T": {"type": "DT_FLOAT"}}}, {"name": "StatefulPartitionedCall/mobilenet_1.00_224_1/conv_dw_12_bn_1/batchnorm/add_1", "op": "AddV2", "input": ["StatefulPartitionedCall/mobilenet_1.00_224_1/conv_dw_12_bn_1/batchnorm/mul_1", "StatefulPartitionedCall/mobilenet_1.00_224_1/conv_dw_12_bn_1/batchnorm/sub"], "attr": {"T": {"type": "DT_FLOAT"}}}, {"name": "StatefulPartitionedCall/mobilenet_1.00_224_1/conv_dw_12_relu_1/Relu6", "op": "Relu6", "input": ["StatefulPartitionedCall/mobilenet_1.00_224_1/conv_dw_12_bn_1/batchnorm/add_1"], "attr": {"T": {"type": "DT_FLOAT"}}}, {"name": "StatefulPartitionedCall/mobilenet_1.00_224_1/conv_pw_12_relu_1/Relu6", "op": "_FusedConv2D", "input": ["StatefulPartitionedCall/mobilenet_1.00_224_1/conv_dw_12_relu_1/Relu6", "StatefulPartitionedCall/mobilenet_1.00_224_1/conv_pw_12_1/convolution/merged_input", "StatefulPartitionedCall/mobilenet_1.00_224_1/conv_pw_12_bn_1/batchnorm/sub"], "device": "/device:CPU:0", "attr": {"num_host_args": {"i": "0"}, "data_format": {"s": "TkhXQw=="}, "filter_format": {"s": "SFdJTw=="}, "fused_ops": {"list": {"s": ["Qmlhc0FkZA==", "UmVsdTY="]}}, "num_args": {"i": "1"}, "strides": {"list": {"i": ["1", "1", "1", "1"]}}, "TArgs": {"list": {"type": ["DT_FLOAT"]}}, "padding": {"s": "U0FNRQ=="}, "use_cudnn_on_gpu": {"b": true}, "leakyrelu_alpha": {"f": 0.2}, "epsilon": {"f": 0.0}, "T": {"type": "DT_FLOAT"}, "explicit_paddings": {"list": {}}, "dilations": {"list": {"i": ["1", "1", "1", "1"]}}}}, {"name": "StatefulPartitionedCall/mobilenet_1.00_224_1/conv_dw_13_1/depthwise", "op": "DepthwiseConv2dNative", "input": ["StatefulPartitionedCall/mobilenet_1.00_224_1/conv_pw_12_relu_1/Relu6", "StatefulPartitionedCall/mobilenet_1.00_224_1/conv_dw_13_1/depthwise/ReadVariableOp"], "attr": {"padding": {"s": "U0FNRQ=="}, "data_format": {"s": "TkhXQw=="}, "T": {"type": "DT_FLOAT"}, "explicit_paddings": {"list": {}}, "dilations": {"list": {"i": ["1", "1", "1", "1"]}}, "strides": {"list": {"i": ["1", "1", "1", "1"]}}}}, {"name": "StatefulPartitionedCall/mobilenet_1.00_224_1/conv_dw_13_bn_1/batchnorm/mul_1", "op": "Mul", "input": ["StatefulPartitionedCall/mobilenet_1.00_224_1/conv_dw_13_1/depthwise", "StatefulPartitionedCall/mobilenet_1.00_224_1/conv_dw_13_bn_1/batchnorm/mul"], "attr": {"T": {"type": "DT_FLOAT"}}}, {"name": "StatefulPartitionedCall/mobilenet_1.00_224_1/conv_dw_13_bn_1/batchnorm/add_1", "op": "AddV2", "input": ["StatefulPartitionedCall/mobilenet_1.00_224_1/conv_dw_13_bn_1/batchnorm/mul_1", "StatefulPartitionedCall/mobilenet_1.00_224_1/conv_dw_13_bn_1/batchnorm/sub"], "attr": {"T": {"type": "DT_FLOAT"}}}, {"name": "StatefulPartitionedCall/mobilenet_1.00_224_1/conv_dw_13_relu_1/Relu6", "op": "Relu6", "input": ["StatefulPartitionedCall/mobilenet_1.00_224_1/conv_dw_13_bn_1/batchnorm/add_1"], "attr": {"T": {"type": "DT_FLOAT"}}}, {"name": "StatefulPartitionedCall/mobilenet_1.00_224_1/conv_pw_13_relu_1/Relu6", "op": "_FusedConv2D", "input": ["StatefulPartitionedCall/mobilenet_1.00_224_1/conv_dw_13_relu_1/Relu6", "StatefulPartitionedCall/mobilenet_1.00_224_1/conv_pw_13_1/convolution/merged_input", "StatefulPartitionedCall/mobilenet_1.00_224_1/conv_pw_13_bn_1/batchnorm/sub"], "device": "/device:CPU:0", "attr": {"num_host_args": {"i": "0"}, "data_format": {"s": "TkhXQw=="}, "filter_format": {"s": "SFdJTw=="}, "strides": {"list": {"i": ["1", "1", "1", "1"]}}, "num_args": {"i": "1"}, "fused_ops": {"list": {"s": ["Qmlhc0FkZA==", "UmVsdTY="]}}, "TArgs": {"list": {"type": ["DT_FLOAT"]}}, "padding": {"s": "U0FNRQ=="}, "use_cudnn_on_gpu": {"b": true}, "leakyrelu_alpha": {"f": 0.2}, "epsilon": {"f": 0.0}, "T": {"type": "DT_FLOAT"}, "explicit_paddings": {"list": {}}, "dilations": {"list": {"i": ["1", "1", "1", "1"]}}}}, {"name": "StatefulPartitionedCall/mobilenet_1.00_224_1/global_average_pooling2d_1/Mean", "op": "Mean", "input": ["StatefulPartitionedCall/mobilenet_1.00_224_1/conv_pw_13_relu_1/Relu6", "StatefulPartitionedCall/mobilenet_1.00_224_1/global_average_pooling2d_1/Mean/reduction_indices"], "attr": {"Tidx": {"type": "DT_INT32"}, "T": {"type": "DT_FLOAT"}, "keep_dims": {"b": true}}}, {"name": "StatefulPartitionedCall/mobilenet_1.00_224_1/conv_preds_1/BiasAdd", "op": "_FusedConv2D", "input": ["StatefulPartitionedCall/mobilenet_1.00_224_1/global_average_pooling2d_1/Mean", "StatefulPartitionedCall/mobilenet_1.00_224_1/conv_preds_1/convolution/ReadVariableOp", "StatefulPartitionedCall/mobilenet_1.00_224_1/conv_preds_1/Squeeze"], "device": "/device:CPU:0", "attr": {"num_host_args": {"i": "0"}, "data_format": {"s": "TkhXQw=="}, "filter_format": {"s": "SFdJTw=="}, "fused_ops": {"list": {"s": ["Qmlhc0FkZA=="]}}, "num_args": {"i": "1"}, "strides": {"list": {"i": ["1", "1", "1", "1"]}}, "TArgs": {"list": {"type": ["DT_FLOAT"]}}, "padding": {"s": "U0FNRQ=="}, "use_cudnn_on_gpu": {"b": true}, "leakyrelu_alpha": {"f": 0.2}, "epsilon": {"f": 0.0}, "T": {"type": "DT_FLOAT"}, "explicit_paddings": {"list": {}}, "dilations": {"list": {"i": ["1", "1", "1", "1"]}}}}, {"name": "StatefulPartitionedCall/mobilenet_1.00_224_1/reshape_2_1/Shape", "op": "Shape", "input": ["StatefulPartitionedCall/mobilenet_1.00_224_1/conv_preds_1/BiasAdd"], "attr": {"T": {"type": "DT_FLOAT"}, "out_type": {"type": "DT_INT32"}}, "experimentalType": {"typeId": "TFT_PRODUCT", "args": [{"typeId": "TFT_SHAPE_TENSOR", "args": [{"typeId": "TFT_INT32"}]}]}}, {"name": "StatefulPartitionedCall/mobilenet_1.00_224_1/reshape_2_1/strided_slice", "op": "StridedSlice", "input": ["StatefulPartitionedCall/mobilenet_1.00_224_1/reshape_2_1/Shape", "StatefulPartitionedCall/mobilenet_1.00_224_1/reshape_2_1/strided_slice/stack", "StatefulPartitionedCall/mobilenet_1.00_224_1/reshape_2_1/strided_slice/stack_1", "StatefulPartitionedCall/mobilenet_1.00_224_1/reshape_2_1/strided_slice/stack_2"], "attr": {"shrink_axis_mask": {"i": "1"}, "new_axis_mask": {"i": "0"}, "Index": {"type": "DT_INT32"}, "begin_mask": {"i": "0"}, "end_mask": {"i": "0"}, "T": {"type": "DT_INT32"}, "ellipsis_mask": {"i": "0"}}}, {"name": "StatefulPartitionedCall/mobilenet_1.00_224_1/reshape_2_1/Reshape/shape", "op": "Pack", "input": ["StatefulPartitionedCall/mobilenet_1.00_224_1/reshape_2_1/strided_slice", "StatefulPartitionedCall/mobilenet_1.00_224_1/reshape_2_1/Reshape/shape/1"], "attr": {"N": {"i": "2"}, "axis": {"i": "0"}, "T": {"type": "DT_INT32"}}}, {"name": "StatefulPartitionedCall/mobilenet_1.00_224_1/reshape_2_1/Reshape", "op": "Reshape", "input": ["StatefulPartitionedCall/mobilenet_1.00_224_1/conv_preds_1/BiasAdd", "StatefulPartitionedCall/mobilenet_1.00_224_1/reshape_2_1/Reshape/shape"], "attr": {"T": {"type": "DT_FLOAT"}, "Tshape": {"type": "DT_INT32"}}}, {"name": "StatefulPartitionedCall/mobilenet_1.00_224_1/predictions_1/Softmax", "op": "Softmax", "input": ["StatefulPartitionedCall/mobilenet_1.00_224_1/reshape_2_1/Reshape"], "attr": {"T": {"type": "DT_FLOAT"}}}, {"name": "Identity", "op": "Identity", "input": ["StatefulPartitionedCall/mobilenet_1.00_224_1/predictions_1/Softmax"], "attr": {"T": {"type": "DT_FLOAT"}}}], "library": {}, "versions": {"producer": 2129}}, "weightsManifest": [{"paths": ["group1-shard1of5.bin", "group1-shard2of5.bin", "group1-shard3of5.bin", "group1-shard4of5.bin", "group1-shard5of5.bin"], "weights": [{"name": "StatefulPartitionedCall/mobilenet_1.00_224_1/conv1_1/convolution/merged_input", "shape": [3, 3, 3, 32], "dtype": "float32"}, {"name": "StatefulPartitionedCall/mobilenet_1.00_224_1/conv1_bn_1/batchnorm/sub", "shape": [32], "dtype": "float32"}, {"name": "StatefulPartitionedCall/mobilenet_1.00_224_1/conv_dw_1_1/depthwise/ReadVariableOp", "shape": [3, 3, 32, 1], "dtype": "float32"}, {"name": "StatefulPartitionedCall/mobilenet_1.00_224_1/conv_dw_1_bn_1/batchnorm/mul", "shape": [32], "dtype": "float32"}, {"name": "StatefulPartitionedCall/mobilenet_1.00_224_1/conv_dw_1_bn_1/batchnorm/sub", "shape": [32], "dtype": "float32"}, {"name": "StatefulPartitionedCall/mobilenet_1.00_224_1/conv_pw_1_1/convolution/merged_input", "shape": [1, 1, 32, 64], "dtype": "float32"}, {"name": "StatefulPartitionedCall/mobilenet_1.00_224_1/conv_pw_1_bn_1/batchnorm/sub", "shape": [64], "dtype": "float32"}, {"name": "StatefulPartitionedCall/mobilenet_1.00_224_1/conv_pad_2_1/Const", "shape": [4, 2], "dtype": "int32"}, {"name": "StatefulPartitionedCall/mobilenet_1.00_224_1/conv_dw_2_1/depthwise/ReadVariableOp", "shape": [3, 3, 64, 1], "dtype": "float32"}, {"name": "StatefulPartitionedCall/mobilenet_1.00_224_1/conv_dw_2_bn_1/batchnorm/mul", "shape": [64], "dtype": "float32"}, {"name": "StatefulPartitionedCall/mobilenet_1.00_224_1/conv_dw_2_bn_1/batchnorm/sub", "shape": [64], "dtype": "float32"}, {"name": "StatefulPartitionedCall/mobilenet_1.00_224_1/conv_pw_2_1/convolution/merged_input", "shape": [1, 1, 64, 128], "dtype": "float32"}, {"name": "StatefulPartitionedCall/mobilenet_1.00_224_1/conv_pw_2_bn_1/batchnorm/sub", "shape": [128], "dtype": "float32"}, {"name": "StatefulPartitionedCall/mobilenet_1.00_224_1/conv_dw_3_1/depthwise/ReadVariableOp", "shape": [3, 3, 128, 1], "dtype": "float32"}, {"name": "StatefulPartitionedCall/mobilenet_1.00_224_1/conv_dw_3_bn_1/batchnorm/mul", "shape": [128], "dtype": "float32"}, {"name": "StatefulPartitionedCall/mobilenet_1.00_224_1/conv_dw_3_bn_1/batchnorm/sub", "shape": [128], "dtype": "float32"}, {"name": "StatefulPartitionedCall/mobilenet_1.00_224_1/conv_pw_3_1/convolution/merged_input", "shape": [1, 1, 128, 128], "dtype": "float32"}, {"name": "StatefulPartitionedCall/mobilenet_1.00_224_1/conv_pw_3_bn_1/batchnorm/sub", "shape": [128], "dtype": "float32"}, {"name": "StatefulPartitionedCall/mobilenet_1.00_224_1/conv_pad_4_1/Const", "shape": [4, 2], "dtype": "int32"}, {"name": "StatefulPartitionedCall/mobilenet_1.00_224_1/conv_dw_4_1/depthwise/ReadVariableOp", "shape": [3, 3, 128, 1], "dtype": "float32"}, {"name": "StatefulPartitionedCall/mobilenet_1.00_224_1/conv_dw_4_bn_1/batchnorm/mul", "shape": [128], "dtype": "float32"}, {"name": "StatefulPartitionedCall/mobilenet_1.00_224_1/conv_dw_4_bn_1/batchnorm/sub", "shape": [128], "dtype": "float32"}, {"name": "StatefulPartitionedCall/mobilenet_1.00_224_1/conv_pw_4_1/convolution/merged_input", "shape": [1, 1, 128, 256], "dtype": "float32"}, {"name": "StatefulPartitionedCall/mobilenet_1.00_224_1/conv_pw_4_bn_1/batchnorm/sub", "shape": [256], "dtype": "float32"}, {"name": "StatefulPartitionedCall/mobilenet_1.00_224_1/conv_dw_5_1/depthwise/ReadVariableOp", "shape": [3, 3, 256, 1], "dtype": "float32"}, {"name": "StatefulPartitionedCall/mobilenet_1.00_224_1/conv_dw_5_bn_1/batchnorm/mul", "shape": [256], "dtype": "float32"}, {"name": "StatefulPartitionedCall/mobilenet_1.00_224_1/conv_dw_5_bn_1/batchnorm/sub", "shape": [256], "dtype": "float32"}, {"name": "StatefulPartitionedCall/mobilenet_1.00_224_1/conv_pw_5_1/convolution/merged_input", "shape": [1, 1, 256, 256], "dtype": "float32"}, {"name": "StatefulPartitionedCall/mobilenet_1.00_224_1/conv_pw_5_bn_1/batchnorm/sub", "shape": [256], "dtype": "float32"}, {"name": "StatefulPartitionedCall/mobilenet_1.00_224_1/conv_pad_6_1/Const", "shape": [4, 2], "dtype": "int32"}, {"name": "StatefulPartitionedCall/mobilenet_1.00_224_1/conv_dw_6_1/depthwise/ReadVariableOp", "shape": [3, 3, 256, 1], "dtype": "float32"}, {"name": "StatefulPartitionedCall/mobilenet_1.00_224_1/conv_dw_6_bn_1/batchnorm/mul", "shape": [256], "dtype": "float32"}, {"name": "StatefulPartitionedCall/mobilenet_1.00_224_1/conv_dw_6_bn_1/batchnorm/sub", "shape": [256], "dtype": "float32"}, {"name": "StatefulPartitionedCall/mobilenet_1.00_224_1/conv_pw_6_1/convolution/merged_input", "shape": [1, 1, 256, 512], "dtype": "float32"}, {"name": "StatefulPartitionedCall/mobilenet_1.00_224_1/conv_pw_6_bn_1/batchnorm/sub", "shape": [512], "dtype": "float32"}, {"name": "StatefulPartitionedCall/mobilenet_1.00_224_1/conv_dw_7_1/depthwise/ReadVariableOp", "shape": [3, 3, 512, 1], "dtype": "float32"}, {"name": "StatefulPartitionedCall/mobilenet_1.00_224_1/conv_dw_7_bn_1/batchnorm/mul", "shape": [512], "dtype": "float32"}, {"name": "StatefulPartitionedCall/mobilenet_1.00_224_1/conv_dw_7_bn_1/batchnorm/sub", "shape": [512], "dtype": "float32"}, {"name": "StatefulPartitionedCall/mobilenet_1.00_224_1/conv_pw_7_1/convolution/merged_input", "shape": [1, 1, 512, 512], "dtype": "float32"}, {"name": "StatefulPartitionedCall/mobilenet_1.00_224_1/conv_pw_7_bn_1/batchnorm/sub", "shape": [512], "dtype": "float32"}, {"name": "StatefulPartitionedCall/mobilenet_1.00_224_1/conv_dw_8_1/depthwise/ReadVariableOp", "shape": [3, 3, 512, 1], "dtype": "float32"}, {"name": "StatefulPartitionedCall/mobilenet_1.00_224_1/conv_dw_8_bn_1/batchnorm/mul", "shape": [512], "dtype": "float32"}, {"name": "StatefulPartitionedCall/mobilenet_1.00_224_1/conv_dw_8_bn_1/batchnorm/sub", "shape": [512], "dtype": "float32"}, {"name": "StatefulPartitionedCall/mobilenet_1.00_224_1/conv_pw_8_1/convolution/merged_input", "shape": [1, 1, 512, 512], "dtype": "float32"}, {"name": "StatefulPartitionedCall/mobilenet_1.00_224_1/conv_pw_8_bn_1/batchnorm/sub", "shape": [512], "dtype": "float32"}, {"name": "StatefulPartitionedCall/mobilenet_1.00_224_1/conv_dw_9_1/depthwise/ReadVariableOp", "shape": [3, 3, 512, 1], "dtype": "float32"}, {"name": "StatefulPartitionedCall/mobilenet_1.00_224_1/conv_dw_9_bn_1/batchnorm/mul", "shape": [512], "dtype": "float32"}, {"name": "StatefulPartitionedCall/mobilenet_1.00_224_1/conv_dw_9_bn_1/batchnorm/sub", "shape": [512], "dtype": "float32"}, {"name": "StatefulPartitionedCall/mobilenet_1.00_224_1/conv_pw_9_1/convolution/merged_input", "shape": [1, 1, 512, 512], "dtype": "float32"}, {"name": "StatefulPartitionedCall/mobilenet_1.00_224_1/conv_pw_9_bn_1/batchnorm/sub", "shape": [512], "dtype": "float32"}, {"name": "StatefulPartitionedCall/mobilenet_1.00_224_1/conv_dw_10_1/depthwise/ReadVariableOp", "shape": [3, 3, 512, 1], "dtype": "float32"}, {"name": "StatefulPartitionedCall/mobilenet_1.00_224_1/conv_dw_10_bn_1/batchnorm/mul", "shape": [512], "dtype": "float32"}, {"name": "StatefulPartitionedCall/mobilenet_1.00_224_1/conv_dw_10_bn_1/batchnorm/sub", "shape": [512], "dtype": "float32"}, {"name": "StatefulPartitionedCall/mobilenet_1.00_224_1/conv_pw_10_1/convolution/merged_input", "shape": [1, 1, 512, 512], "dtype": "float32"}, {"name": "StatefulPartitionedCall/mobilenet_1.00_224_1/conv_pw_10_bn_1/batchnorm/sub", "shape": [512], "dtype": "float32"}, {"name": "StatefulPartitionedCall/mobilenet_1.00_224_1/conv_dw_11_1/depthwise/ReadVariableOp", "shape": [3, 3, 512, 1], "dtype": "float32"}, {"name": "StatefulPartitionedCall/mobilenet_1.00_224_1/conv_dw_11_bn_1/batchnorm/mul", "shape": [512], "dtype": "float32"}, {"name": "StatefulPartitionedCall/mobilenet_1.00_224_1/conv_dw_11_bn_1/batchnorm/sub", "shape": [512], "dtype": "float32"}, {"name": "StatefulPartitionedCall/mobilenet_1.00_224_1/conv_pw_11_1/convolution/merged_input", "shape": [1, 1, 512, 512], "dtype": "float32"}, {"name": "StatefulPartitionedCall/mobilenet_1.00_224_1/conv_pw_11_bn_1/batchnorm/sub", "shape": [512], "dtype": "float32"}, {"name": "StatefulPartitionedCall/mobilenet_1.00_224_1/conv_pad_12_1/Const", "shape": [4, 2], "dtype": "int32"}, {"name": "StatefulPartitionedCall/mobilenet_1.00_224_1/conv_dw_12_1/depthwise/ReadVariableOp", "shape": [3, 3, 512, 1], "dtype": "float32"}, {"name": "StatefulPartitionedCall/mobilenet_1.00_224_1/conv_dw_12_bn_1/batchnorm/mul", "shape": [512], "dtype": "float32"}, {"name": "StatefulPartitionedCall/mobilenet_1.00_224_1/conv_dw_12_bn_1/batchnorm/sub", "shape": [512], "dtype": "float32"}, {"name": "StatefulPartitionedCall/mobilenet_1.00_224_1/conv_pw_12_1/convolution/merged_input", "shape": [1, 1, 512, 1024], "dtype": "float32"}, {"name": "StatefulPartitionedCall/mobilenet_1.00_224_1/conv_pw_12_bn_1/batchnorm/sub", "shape": [1024], "dtype": "float32"}, {"name": "StatefulPartitionedCall/mobilenet_1.00_224_1/conv_dw_13_1/depthwise/ReadVariableOp", "shape": [3, 3, 1024, 1], "dtype": "float32"}, {"name": "StatefulPartitionedCall/mobilenet_1.00_224_1/conv_dw_13_bn_1/batchnorm/mul", "shape": [1024], "dtype": "float32"}, {"name": "StatefulPartitionedCall/mobilenet_1.00_224_1/conv_dw_13_bn_1/batchnorm/sub", "shape": [1024], "dtype": "float32"}, {"name": "StatefulPartitionedCall/mobilenet_1.00_224_1/conv_pw_13_1/convolution/merged_input", "shape": [1, 1, 1024, 1024], "dtype": "float32"}, {"name": "StatefulPartitionedCall/mobilenet_1.00_224_1/conv_pw_13_bn_1/batchnorm/sub", "shape": [1024], "dtype": "float32"}, {"name": "StatefulPartitionedCall/mobilenet_1.00_224_1/global_average_pooling2d_1/Mean/reduction_indices", "shape": [2], "dtype": "int32"}, {"name": "StatefulPartitionedCall/mobilenet_1.00_224_1/conv_preds_1/convolution/ReadVariableOp", "shape": [1, 1, 1024, 1000], "dtype": "float32"}, {"name": "StatefulPartitionedCall/mobilenet_1.00_224_1/conv_preds_1/Squeeze", "shape": [1000], "dtype": "float32"}, {"name": "StatefulPartitionedCall/mobilenet_1.00_224_1/reshape_2_1/strided_slice/stack", "shape": [1], "dtype": "int32"}, {"name": "StatefulPartitionedCall/mobilenet_1.00_224_1/reshape_2_1/strided_slice/stack_1", "shape": [1], "dtype": "int32"}, {"name": "StatefulPartitionedCall/mobilenet_1.00_224_1/reshape_2_1/strided_slice/stack_2", "shape": [1], "dtype": "int32"}, {"name": "StatefulPartitionedCall/mobilenet_1.00_224_1/reshape_2_1/Reshape/shape/1", "shape": [], "dtype": "int32"}]}]}